chatbot/data.pth (torch, 7319 bytes, 6 tensors)

l1.weight f4 [8, 99]
-0.3088551 0.033727232 -0.09459363 0.18240249 -0.50019616 0.32243922 -0.31325722 -0.26091832
-0.11055586 0.5676746 1.0655458 -0.69708306 0.5923748 0.23036902 0.51189125 0.2665638
-0.60371786 -0.2556719 0.6330441 -0.5507742 0.440717 0.67342615 0.6374843 0.5511035
0.37590683 0.3756892 0.44638798 0.2067287 -0.15970598 0.5828558 0.029499657 0.7444388
0.6813154 -0.52027655 -0.24887893 -0.33460742 -0.3681409 0.0012288659 0.52317864 0.27218515
0.55643284 -0.40905088 -0.235725 0.35749814 0.17953633 0.09261198 0.2799202 0.21498033
0.23430371 0.5682429 0.0077668205 -0.6816905 0.34256375 0.2723502 0.10326243 -0.15973349
0.57088506 0.85392725 0.36475927 -0.2342682 0.38216683 -0.29455495 -0.17423573 -0.08592104
-0.5203266 -0.20731258 -0.085365236 0.2929708 0.78708 -0.36068484 0.31497952 -0.11087572
0.34835312 0.30363718 -0.13075237 0.19400503 1.1747453 0.42588803 -0.50504 0.059770618
0.44061115 0.26305753 0.497934 0.45044953 0.86558527 -0.69889253 -0.013246226 0.68040884
-0.2746629 0.72223437 0.06757554 0.7105609 0.17613384 0.25025782 0.5397528 -0.2753382
0.34337857 0.49705786 -0.19427712 -0.34524837 0.2634967 -0.09340954 0.48848477 -0.1468123
0.7057966 0.3242953 -0.11215748 0.16519564 -0.05723138 1.0095409 0.59519863 -0.6275197
0.7816965 -0.5196581 0.56084555 -0.06631999 -0.013711412 -0.31873313 -0.12726979 -0.11556963
-0.2515581 0.055322055 -0.01934273 -0.47942424 -0.37436077 -0.15317805 -0.37753883 0.5508125
-0.51960075 0.31082797 0.48553252 -0.027496424 0.4846449 -0.3218355 0.27529407 0.2944121
-0.16294321 0.90706384 0.3361328 0.4260864 0.25190192 0.20377906 0.52690005 0.27468473
0.50773585 0.17217094 -0.2936735 0.12146612 -0.111205585 -0.106129676 0.022364741 0.4086966
-0.37999037 0.32640645 0.6245937 -0.69759065 -0.43559122 0.091942206 -0.06370291 0.33587706
-0.2910853 -0.33095837 0.31296435 0.8070319 0.5917121 0.34236994 -0.3050458 0.33478364
0.5981309 -0.08608902 0.5094634 0.32880765 0.38564622 0.5109846 -0.14054073 0.60019773
0.3751214 -0.5985918 0.15792556 0.026299601 0.2616679 0.532165 0.44099346 -0.56290776
0.5243324 0.44024774 -0.4840868 0.43621212 0.93361 0.27659065 0.32825622 -0.24877311
0.31480148 0.060976706 -0.33379754 0.07021813 0.079182275 0.1786811 -0.35607824 0.30007818
0.088355415 0.2106846 0.8510611 0.41935843 -0.23636529 0.39940548 0.88569933 0.5255664
0.6620208 0.587343 -0.45382833 0.38398278 0.29983884 0.5680891 0.7778229 0.77975273
-0.91440135 0.7806136 -0.2407894 -0.51717484 0.48272094 -0.37359282 -0.29454714 -0.25102705
-0.20777743 -0.42739314 -0.27068192 0.28785932 -0.40804932 -0.76496893 -0.013355349 0.7210975
-0.3715561 0.7523569 0.7731043 0.044208586 0.59301054 0.10869849 0.15066183 0.3742479
0.41388556 0.13328205 0.029543325 0.2494722 0.030892521 0.12965389 -0.090152 -0.55214196
-0.061267447 0.87809604 0.1007893 -0.44939 0.11546079 -0.11375675 -0.7535572 0.14543046
00000000: 4122 9ebe 9125 0a3d 4eba c1bd b8c7 3a3e
00000010: db0c 00bf c116 a53e 4063 a0be 1697 85be
00000020: 1c6b e2bd 1f53 113f ce63 883f 0974 32bf
00000030: e0a5 173f dbe5 6b3e 4e0b 033f 0d7b 883e
00000040: 418d 1abf 6de7 82be 2e0f 223f 8aff 0cbf
00000050: a9a5 e13e a865 2c3f 2c32 233f 1e15 0d3f
00000060: dc76 c03e 565a c03e f78c e43e b0b0 533e
00000070: f789 23be 0a36 153f 44a9 f13c 8b93 3e3f
00000080: b06a 2e3f d830 05bf 1eda 7ebe aa51 abbe
00000090: f77c bcbe e611 a13a 09ef 053f da5b 8b3e
000000a0: 6272 0e3f 1e6f d1be e561 71be ff09 b73e
000000b0: 5fd8 373e 5aab bd3d b351 8f3e ce23 5c3e
000000c0: 50ed 6f3e 5e78 113f d080 fe3b 4583 2ebf
000000d0: 8464 af3e 7c71 8b3e 417b d33d 2d91 23be
000000e0: 8625 123f fa9a 5a3f bac1 ba3e 01e4 6fbe
000000f0: 5fab c33e e8cf 96be da6a 32be 5ff7 afbd
00000100: 2034 05bf c049 54be f8d3 aebd 4500 963e
00000110: 137e 493f afab b8be ff44 a13e cf12 e3bd
00000120: 575b b23e 5576 9b3e f3e3 05be 41a9 463e
00000130: 0e5e 963f ff0d da3e 4d4a 01bf 09d2 743d
00000140: c997 e13e 7aaf 863e 35f1 fe3e 52a1 e63e
00000150: ff96 5d3f 9fea 32bf b306 59bc 462f 2e3f
00000160: 9ea0 8cbe 5ae4 383f 0b65 8a3d 52e7 353f
00000170: 6e5c 343e cb21 803e 3d2d 0a3f 21f9 8cbe
00000180: 51cf af3e 5e7e fe3e 95f0 46be 65c4 b0be
00000190: 0ae9 863e 804d bfbd ad1a fa3e f755 16be
000001a0: 16af 343f 090a a63e d2b2 e5bd 0c29 293e
000001b0: 746b 6abd a338 813f f05e 183f 22a5 20bf
000001c0: 431d 483f 5008 05bf 9393 0f3f c6d2 87bd
000001d0: d5a5 60bc fd30 a3be 0353 02be c5af ecbd
000001e0: 39cc 80be 6199 623d a574 9ebc 1877 f5be
000001f0: 37ac bfbe b5da 1cbe c54c c1be 0c02 0d3f
00000200: 8e04 05bf d824 9f3e b897 f83e 2e40 e1bc
00000210: 6023 f83e 9fc7 a4be 58f3 8c3e 2fbd 963e
00000220: 96da 26be 5635 683f 9919 ac3e ff27 da3e
00000230: 4af9 803e 75ab 503e ece2 063f 7aa3 8c3e
00000240: fafa 013f 944d 303e 5f5c 96be 3bc3 f83d
00000250: c1bf e3bd 845a d9bd 4336 b73c ae40 d13e
00000260: 198e c2be bf1e a73e 5fe5 1f3f 4d95 32bf
00000270: d005 dfbe 324c bc3d ac76 82bd 14f8 ab3e
00000280: 2209 95be 6073 a9be dd3c a03e a599 4e3f
00000290: 727a 173f 1d4b af3e f72e 9cbe c368 ab3e
000002a0: 1b1f 193f 714f b0bd 326c 023f 7a59 a83e
000002b0: 6c73 c53e e3cf 023f e9e9 0fbe 8fa6 193f
000002c0: ea0f c03e 503d 19bf 3db7 213e 4372 d73c
000002d0: 56f9 853e f73b 083f e5c9 e13e b91a 10bf
000002e0: a63a 063f 2768 e13e 3ada f7be 3257 df3e
000002f0: 1101 6f3f 4a9d 8d3e 3311 a83e 61be 7ebe
00000300: a92d a13e b6c2 793d 83e7 aabe 86ce 8f3d
00000310: 512a a23d 2ef8 363e e34f b6be d9a3 993e
00000320: aff3 b43d b4bd 573e 24df 593f 26b6 d63e
00000330: be09 72be e07e cc3e 31bd 623f 858b 063f
00000340: 327a 293f 1c5c 163f 305c e8be 6499 c43e
00000350: 7a84 993e 4a6e 113f 671f 473f e09d 473f
00000360: 3516 6abf 4bd6 473f 7f91 76be 9265 04bf
00000370: 3327 f73e 8f47 bfbe e2ce 96be 9e86 80be
00000380: 9bc3 54be 46d3 dabe d296 8abe 4c62 933e
00000390: d7eb d0be 01d5 43bf 65d0 5abc d999 383f
000003a0: 9a3c bebe 769a 403f 2aea 453f 1014 353d
000003b0: 8acf 173f 509d de3d 1847 1a3e 6c9d bf3e
000003c0: cfe8 d33e 177b 083e d804 f23c a475 7f3e
000003d0: 5012 fd3c fdc3 043e 9da1 b8bd 2d59 0dbf
000003e0: 93f3 7abd e7ca 603f 9f6a ce3d 7216 e6be
000003f0: b576 ec3d 4df9 e8bd 20e9 40bf b9eb 143e

l1.bias f4 [8]
0.5203006 0.51962095 0.9656913 0.7987169 0.55163956 0.6047815 0.8455988 1.1200426
00000000: 6c32 053f e105 053f 8c37 773f b678 4c3f
00000010: 4038 0d3f f6d2 1a3f 2a79 583f 8e5d 8f3f

l2.weight f4 [8, 8]
0.8663479 1.0484765 0.9573566 0.5202199 0.02781781 0.30516842 -0.26803714 -1.7385263
-0.2622425 -0.3111267 -1.108391 1.0386595 0.76025784 -0.6685979 -0.19954006 0.84290606
0.7491896 0.29224426 1.3842927 -0.64766127 -1.5506454 -0.15225579 0.7992413 1.0903882
-0.6147796 0.063803904 -0.39117107 1.6286999 0.5110472 1.2240732 0.43458787 1.4568241
1.2447962 -1.151392 -0.4218584 0.18328032 1.4576705 -1.2836434 1.1186032 1.1470696
1.0064069 0.7310779 -0.9182174 0.76596606 1.0802541 0.9645193 1.0479637 -0.6015131
-0.5611702 1.0404302 1.4256319 0.96441174 0.934435 -1.0433251 -0.98364544 0.8077502
0.017850928 -0.32600173 0.5620013 1.3930806 -0.46891925 1.4949195 0.777743 -0.86810195
00000000: fac8 5d3f 7a34 863f 5215 753f 222d 053f
00000010: 2de2 e33c 093f 9c3e 2a3c 89be 0888 debf
00000020: a644 86be 004c 9fbe c2df 8dbf cbf2 843f
00000030: 42a0 423f 3b29 2bbf 3b54 4cbe b1c8 573f
00000040: e4ca 3f3f 0aa1 953e 8130 b13f 21cd 25bf
00000050: 8c7b c6bf f1e8 1bbe 149b 4c3f d791 8b3f
00000060: 3262 1dbf 9fab 823d 9347 c8be 3d79 d03f
00000070: fdd3 023f 6eae 9c3f 4d82 de3e 3679 ba3f
00000080: 7b55 9f3f d060 93bf d3fd d7be d6ad 3b3e
00000090: f294 ba3f 6d4e a4bf 642e 8f3f 2dd3 923f
000000a0: f1d1 803f ec27 3b3f 4c10 6bbf 5a16 443f
000000b0: c445 8a3f bdea 763f ad23 863f c3fc 19bf
000000c0: daa8 0fbf d12c 853f 1b7b b63f b0e3 763f
000000d0: 2237 6f3f ad8b 85bf 30d0 7bbf b8c8 4e3f
000000e0: 1c3c 923c b3e9 a6be 51df 0f3f 7750 b23f
000000f0: 2f16 f0be 8659 bf3f 2a1a 473f ee3b 5ebf

l2.bias f4 [8]
0.11734471 0.4320621 0.75587475 0.825559 0.64199626 -0.40956786 0.34829447 0.4129719
00000000: 6c52 f03d 3e37 dd3e 0281 413f d657 533f
00000010: de59 243f e1b2 d1be a753 b23e 0e71 d33e

l3.weight f4 [14, 8]
-1.059692 0.66498 -1.1592894 0.46285954 -0.21431713 -0.41186047 0.55732876 -0.99090004
0.49537772 -1.1061274 0.48021603 -1.5567415 -1.4555773 0.10508519 -0.34518912 -0.042070415
-1.4333129 -1.4613043 0.089482024 -0.04109989 0.6936005 0.33926535 -1.4134455 -0.43267894
-1.1415215 0.66842276 -1.1643391 -0.23595616 0.7157539 0.33238527 -0.9571442 -0.27222002
-1.4442253 -0.2334937 0.71670514 0.037389833 0.90607417 -1.5509139 0.012699205 -1.74306
0.24424134 -0.7983059 -0.14682911 -0.90810275 0.13142514 0.30575794 0.23548892 -1.4249038
-1.6683072 -1.2600601 0.565806 0.47159225 -0.5502177 -0.42564425 0.037967768 0.34400138
0.22435506 -0.9294349 0.015655607 -0.1559922 -1.070005 0.41838068 -1.6684922 0.40831104
-0.22335713 -1.5611123 -1.528706 -0.062664576 0.23031119 0.5597801 -1.0229388 0.5560633
0.30820662 -0.9567761 0.33562732 -0.6137151 -1.3197995 -1.4758364 0.07848811 0.66452247
0.3840677 -0.54408807 -1.2756572 -0.1937863 -0.9437646 -0.14010185 0.40044612 0.10028125
-0.04057682 -0.61870867 0.5311405 -1.5190042 0.44915473 -0.41104978 -1.006371 0.08777325
-2.1160827 -0.005766156 -0.6195372 0.78396577 -0.2798904 0.09113098 -2.2868097 0.7594801
-0.12059852 -1.312851 0.036852486 -0.09962038 -0.85657203 -1.330185 0.829982 -1.0426781
00000000: fda3 87bf 213c 2a3f 9863 94bf edfb ec3e
00000010: f375 5bbe 60df d2be 19ad 0e3f a0ab 7dbf
00000020: 26a2 fd3e 9595 8dbf e0de f53e 4e43 c7bf
00000030: 5b50 babf e736 d73d a1bc b0be 0752 2cbd
00000040: cc76 b7bf 050c bbbf 5a42 b73d 5c58 28bd
00000050: cd8f 313f 30b4 ad3e c8eb b4bf 1888 ddbe
00000060: 601d 92bf c11d 2b3f 1009 95bf 7e9e 71be
00000070: a63b 373f 672e aa3e 6707 75bf 6c60 8bbe
00000080: 60dc b8bf f918 6fbe fd79 373f 1526 193d
00000090: 7af4 673f 5984 c6bf 5410 503c 971c dfbf
000000a0: 671a 7a3e c75d 4cbf 5f5a 16be 6c79 68bf
000000b0: 5094 063e 4e8c 9c3e 0224 713e 3f63 b6bf
000000c0: 178b d5bf a649 a1bf a9d8 103f 8a74 f13e
000000d0: 11db 0cbf 0bee d9be 1784 1b3d f320 b03e
000000e0: 55bd 653e 72ef 6dbf 3040 803c 6bbc 1fbe
000000f0: edf5 88bf fe35 d63e 2791 d5bf 250e d13e
00000100: bbb7 64be 87d2 c7bf a3ac c3bf 4956 80bd
00000110: b2d6 6b3e c04d 0f3f a9ef 82bf 2a5a 0e3f
00000120: 42cd 9d3e 47ef 74bf 58d7 ab3e 6f1c 1dbf
00000130: 31ef a8bf 35e8 bcbf 60be a03d 251e 2a3f
00000140: 86a4 c43e 5b49 0bbf bc48 a3bf ea6f 46be
00000150: 8f9a 71bf dc76 0fbe 4607 cd3e 4260 cd3d
00000160: e133 26bd b163 1ebf d3f8 073f bb6e c2bf
00000170: 9cf7 e53e 1e75 d2be c4d0 80bf 76c2 b33d
00000180: e66d 07c0 06f2 bcbb fd99 1ebf fbb1 483f
00000190: cb4d 8fbe e1a2 ba3d 175b 12c0 4a6d 423f
000001a0: 5bfc f6bd 800b a8bf a2f2 163d c505 ccbd
000001b0: 4e48 5bbf 8143 aabf b379 543f 7a76 85bf

l3.bias f4 [14]
0.29063436 -0.2755227 -0.26685166 -0.01596138 0.06960297 -0.15138443 -0.2131893 0.3580146
-0.13258603 0.28714746 -0.1583036 0.0340436 0.1737609 0.038376447
00000000: 07ce 943e 5011 8dbe c8a0 88be 71c1 82bc
00000010: 008c 8e3d 8504 1bbe 4c4e 5abe b14d b73e
00000020: a2c4 07be fe04 933e 571a 22be 4d71 0b3d
00000030: 61ee 313e 9f30 1d3d
